…
   "outputs": [
    {
     "name": "stderr",
     "output_type": "stream",
     "text": [
      "/opt/conda/lib/python3.10/site-packages/transformers/optimization.py:411: FutureWarning: This implementation of AdamW is deprecated and will be removed in a future version. Use the PyTorch implementation torch.optim.AdamW instead, or set `no_deprecation_warning=True` to disable this warning\n",
      "  warnings.warn(\n"
     ]
    },
    {
     "data": {
      "text/plain": [
       "PULLUPModel(\n",
       "  (bert): BertModel(\n",
       "    (embeddings): BertEmbeddings(\n",
       "      (word_embeddings): Embedding(30522, 768, padding_idx=0)\n",
       "      (position_embeddings): Embedding(512, 768)\n",
       "      (token_type_embeddings): Embedding(2, 768)\n",
       "      (LayerNorm): LayerNorm((768,), eps=1e-12, elementwise_affine=True)\n",
       "      (dropout): Dropout(p=0.1, inplace=False)\n",
       "    )\n",
       "    (encoder): BertEncoder(\n",
       "      (layer): ModuleList(\n",
       "        (0-11): 12 x BertLayer(\n",
       "          (attention): BertAttention(\n",
       "            (self): BertSelfAttention(\n",
       "              (query): Linear(in_features=768, out_features=768, bias=True)\n",
       "              (key): Linear(in_features=768, out_features=768, bias=True)\n",
       "              (value): Linear(in_features=768, out_features=768, bias=True)\n",
       "              (dropout): Dropout(p=0.1, inplace=False)\n",
       "            )\n",
       "            (output): BertSelfOutput(\n",
       "              (dense): Linear(in_features=768, out_features=768, bias=True)\n",
       "              (LayerNorm): LayerNorm((768,), eps=1e-12, elementwise_affine=True)\n",
       "              (dropout): Dropout(p=0.1, inplace=False)\n",
       "            )\n",
       "          )\n",
       "          (intermediate): BertIntermediate(\n",
       "            (dense): Linear(in_features=768, out_features=3072, bias=True)\n",
       "            (intermediate_act_fn): GELUActivation()\n",
       "          )\n",
       "          (output): BertOutput(\n",
       "            (dense): Linear(in_features=3072, out_features=768, bias=True)\n",
       "            (LayerNorm): LayerNorm((768,), eps=1e-12, elementwise_affine=True)\n",
       "            (dropout): Dropout(p=0.1, inplace=False)\n",
       "          )\n",
       "        )\n",
       "      )\n",
       "    )\n",
       "    (pooler): BertPooler(\n",
       "      (dense): Linear(in_features=768, out_features=768, bias=True)\n",
       "      (activation): Tanh()\n",
       "    )\n",
       "  )\n",
       "  (dropout): Dropout(p=0.1, inplace=False)\n",
       "  (numeric_layers): Sequential(\n",
       "    (0): Linear(in_features=9, out_features=64, bias=True)\n",
       "    (1): ReLU()\n",
       "    (2): Linear(in_features=64, out_features=32, bias=True)\n",
       "    (3): ReLU()\n",
       "  )\n",
       "  (combined_layer): Linear(in_features=800, out_features=2, bias=True)\n",
       ")"
      ]
     },
     "execution_count": 11,
     "metadata": {},
     "output_type": "execute_result"
    }
   ],
   "source": [
    "import torch.nn as nn\n",
    "from transformers import AdamW\n",
    "\n",
    "num_epochs = 3\n",
    "alpha = 0.01\n",
    "criterion = nn.BCELoss()\n",
    "optimizer = AdamW(model.parameters(), lr=1e-5)\n",
…
    "device = 'cuda' if torch.cuda.is_available() else 'cpu'\n",
    "\n",
    "classifier_model = ClassifierModel(num_labels=2)\n",
    "focal_loss = FocalLoss(alpha = 0.8, gamma = 2)\n",
    "optimizer = AdamW(classifier_model.parameters(), lr= 2e-5)"
   ]
  },
  {
   "cell_type": "code",
   "execution_count": 395,
   "id": "bbaf6a73-e728-46a0-af18-8b57a86b9530",
   "metadata": {},
   "outputs": [
    {
     "data": {
      "text/plain": [
       "ClassifierModel(\n",
       "  (bert_model): BertForSequenceClassification(\n",
       "    (bert): BertModel(\n",
       "      (embeddings): BertEmbeddings(\n",
       "        (word_embeddings): Embedding(30522, 768, padding_idx=0)\n",
       "        (position_embeddings): Embedding(512, 768)\n",
       "        (token_type_embeddings): Embedding(2, 768)\n",
       "        (LayerNorm): LayerNorm((768,), eps=1e-12, elementwise_affine=True)\n",
       "        (dropout): Dropout(p=0.1, inplace=False)\n",
       "      )\n",
       "      (encoder): BertEncoder(\n",
       "        (layer): ModuleList(\n",
       "          (0-11): 12 x BertLayer(\n",
       "            (attention): BertAttention(\n",
       "              (self): BertSelfAttention(\n",
       "                (query): Linear(in_features=768, out_features=768, bias=True)\n",
       "                (key): Linear(in_features=768, out_features=768, bias=True)\n",
       "                (value): Linear(in_features=768, out_features=768, bias=True)\n",
       "                (dropout): Dropout(p=0.1, inplace=False)\n",
       "              )\n",
       "              (output): BertSelfOutput(\n",
       "                (dense): Linear(in_features=768, out_features=768, bias=True)\n",
       "                (LayerNorm): LayerNorm((768,), eps=1e-12, elementwise_affine=True)\n",
       "                (dropout): Dropout(p=0.1, inplace=False)\n",
       "              )\n",
       "            )\n",
       "            (intermediate): BertIntermediate(\n",
       "              (dense): Linear(in_features=768, out_features=3072, bias=True)\n",
       "              (intermediate_act_fn): GELUActivation()\n",
       "            )\n",
       "            (output): BertOutput(\n",
       "              (dense): Linear(in_features=3072, out_features=768, bias=True)\n",
       "              (LayerNorm): LayerNorm((768,), eps=1e-12, elementwise_affine=True)\n",
       "              (dropout): Dropout(p=0.1, inplace=False)\n",
       "            )\n",
       "          )\n",
       "        )\n",
       "      )\n",
       "      (pooler): BertPooler(\n",
       "        (dense): Linear(in_features=768, out_features=768, bias=True)\n",
       "        (activation): Tanh()\n",
       "      )\n",
       "    )\n",
       "    (dropout): Dropout(p=0.1, inplace=False)\n",
       "    (classifier): Linear(in_features=768, out_features=2, bias=True)\n",
       "  )\n",
       ")"
      ]
     },
     "execution_count": 395,
     "metadata": {},
     "output_type": "execute_result"
    }
   ],
   "source": [
    "classifier_model"
   ]
  },
  {
   "cell_type": "code",
   "execution_count": 396,
   "id": "d60040a7-6efe-4039-9cf6-c4484824deb1",
   "metadata": {},
   "outputs": [],
   "source": [
    "trainer = ClassifierTrainer(classifier_model, focal_loss, optimizer, \n",
…
